main.py --devid 0 --model-config configs/hmm-d512-k256.yaml --bsz 4 --num-epochs 100 --patience 8 --save hmm_b4_d512_k256
{'--bptt': '35',
 '--bsz': '4',
 '--clip': '5',
 '--decay': '4',
 '--devid': '0',
 '--eval-bsz': '1',
 '--lr': '1e-3',
 '--model-config': 'configs/hmm-d512-k256.yaml',
 '--num-checks': '4',
 '--num-epochs': '100',
 '--overfit': False,
 '--patience': '8',
 '--save': 'hmm_b4_d512_k256',
 '--seed': '1111'}
HmmLm(
  (start_mlp): Sequential(
    (0): ResidualLayer(
      (lin1): Linear(in_features=512, out_features=512, bias=True)
      (lin2): Linear(in_features=512, out_features=512, bias=True)
      (layer_norm): LayerNorm((512,), eps=1e-05, elementwise_affine=True)
    )
    (1): Linear(in_features=512, out_features=1, bias=True)
  )
  (trans_mlp): Sequential(
    (0): ResidualLayer(
      (lin1): Linear(in_features=512, out_features=512, bias=True)
      (lin2): Linear(in_features=512, out_features=512, bias=True)
      (layer_norm): LayerNorm((512,), eps=1e-05, elementwise_affine=True)
    )
    (1): Linear(in_features=512, out_features=256, bias=True)
  )
  (terminal_mlp): Sequential(
    (0): ResidualLayer(
      (lin1): Linear(in_features=512, out_features=512, bias=True)
      (lin2): Linear(in_features=512, out_features=512, bias=True)
      (layer_norm): LayerNorm((512,), eps=1e-05, elementwise_affine=True)
    )
    (1): Linear(in_features=512, out_features=10001, bias=True)
  )
)
Num params, trainable: 7234578, 7234578
Valid eval: log_prob = -433947.91 | xent(word) = 5.88 | ppl = 358.97 | total_time = 73.00s 
Valid eval: log_prob = -425518.97 | xent(word) = 5.77 | ppl = 320.21 | total_time = 72.97s 
Valid eval: log_prob = -421635.72 | xent(word) = 5.72 | ppl = 303.78 | total_time = 72.92s 
Train epoch 0: log_prob = -5464204.50 | xent(word) = 5.88 | ppl = 357.13 | total_time = 4928.28s 
…
