main.py --devid 0 --model-config configs/hmm-d512-k128.yaml --bsz 4 --num-epochs 100 --patience 8 --save hmm_b4_d512_k128
{'--bptt': '35',
 '--bsz': '4',
 '--clip': '5',
 '--decay': '4',
 '--devid': '0',
 '--eval-bsz': '1',
 '--lr': '1e-3',
 '--model-config': 'configs/hmm-d512-k128.yaml',
 '--num-checks': '4',
 '--num-epochs': '100',
 '--overfit': False,
 '--patience': '8',
 '--save': 'hmm_b4_d512_k128',
 '--seed': '1111'}
HmmLm(
  (start_mlp): Sequential(
    (0): ResidualLayer(
      (lin1): Linear(in_features=512, out_features=512, bias=True)
      (lin2): Linear(in_features=512, out_features=512, bias=True)
      (layer_norm): LayerNorm((512,), eps=1e-05, elementwise_affine=True)
    )
    (1): Linear(in_features=512, out_features=1, bias=True)
  )
  (trans_mlp): Sequential(
    (0): ResidualLayer(
      (lin1): Linear(in_features=512, out_features=512, bias=True)
      (lin2): Linear(in_features=512, out_features=512, bias=True)
      (layer_norm): LayerNorm((512,), eps=1e-05, elementwise_affine=True)
    )
    (1): Linear(in_features=512, out_features=128, bias=True)
  )
  (terminal_mlp): Sequential(
    (0): ResidualLayer(
      (lin1): Linear(in_features=512, out_features=512, bias=True)
      (lin2): Linear(in_features=512, out_features=512, bias=True)
      (layer_norm): LayerNorm((512,), eps=1e-05, elementwise_affine=True)
    )
    (1): Linear(in_features=512, out_features=10001, bias=True)
  )
)
Num params, trainable: 6972306, 6972306
Valid eval: log_prob = -433544.59 | xent(word) = 5.88 | ppl = 357.01 | total_time = 14.43s 
Valid eval: log_prob = -425309.66 | xent(word) = 5.77 | ppl = 319.30 | total_time = 14.49s 
Valid eval: log_prob = -421197.66 | xent(word) = 5.71 | ppl = 301.99 | total_time = 14.44s 
Train epoch 0: log_prob = -5458161.50 | xent(word) = 5.87 | ppl = 354.81 | total_time = 905.48s 
…
