main.py --devid 0 --model-config configs/hmm-d256-k512.yaml --bsz 4 --num-epochs 100 --patience 8 --save hmm_b4_d256_k512_s1 --seed 1
{'--bptt': '35',
 '--bsz': '4',
 '--clip': '5',
 '--decay': '4',
 '--devid': '0',
 '--eval-bsz': '1',
 '--lr': '1e-3',
 '--model-config': 'configs/hmm-d256-k512.yaml',
 '--num-checks': '4',
 '--num-epochs': '100',
 '--overfit': False,
 '--patience': '8',
 '--report-every': '5000',
 '--save': 'hmm_b4_d256_k512_s1',
 '--seed': '1'}
HmmLm(
  (start_mlp): Sequential(
    (0): ResidualLayer(
      (lin1): Linear(in_features=256, out_features=256, bias=True)
      (lin2): Linear(in_features=256, out_features=256, bias=True)
      (layer_norm): LayerNorm((256,), eps=1e-05, elementwise_affine=True)
    )
    (1): Linear(in_features=256, out_features=1, bias=True)
  )
  (trans_mlp): Sequential(
    (0): ResidualLayer(
      (lin1): Linear(in_features=256, out_features=256, bias=True)
      (lin2): Linear(in_features=256, out_features=256, bias=True)
      (layer_norm): LayerNorm((256,), eps=1e-05, elementwise_affine=True)
    )
    (1): Linear(in_features=256, out_features=512, bias=True)
  )
  (terminal_mlp): Sequential(
    (0): ResidualLayer(
      (lin1): Linear(in_features=256, out_features=256, bias=True)
      (lin2): Linear(in_features=256, out_features=256, bias=True)
      (layer_norm): LayerNorm((256,), eps=1e-05, elementwise_affine=True)
    )
    (1): Linear(in_features=256, out_features=10001, bias=True)
  )
)
Num params, trainable: 3491602, 3491602
Valid eval: log_prob = -432237.97 | xent(word) = 5.86 | ppl = 350.74 | elbo = -6.49 | total_time = 36.53s
Train batch 4999: log_prob = -2658196.25 | xent(word) = 6.02 | ppl = 413.04 | elbo = -7.00
Valid eval: log_prob = -423539.06 | xent(word) = 5.74 | ppl = 311.73 | elbo = -6.30 | total_time = 36.51s
Train batch 9999: log_prob = -5195699.50 | xent(word) = 5.88 | ppl = 356.10 | elbo = -6.64
…
