main.py --model-config configs/poehmm-d256-n3-k128-oldres.yaml --bsz 4 --num-epochs 100 --patience 8 --devid 0 --save poehmm_b4_d256_n3_k128_oldres
{'--bptt': '35',
 '--bsz': '4',
 '--clip': '5',
 '--decay': '4',
 '--devid': '0',
 '--eval-bsz': '1',
 '--lr': '1e-3',
 '--model-config': 'configs/poehmm-d256-n3-k128-oldres.yaml',
 '--num-checks': '4',
 '--num-epochs': '100',
 '--overfit': False,
 '--patience': '8',
 '--report-every': '5000',
 '--save': 'poehmm_b4_d256_n3_k128_oldres',
 '--seed': '1111'}
PoeHmmLm(
  (start_mlp): Sequential(
    (0): ResidualLayer(
      (lin1): Linear(in_features=256, out_features=256, bias=True)
      (lin2): Linear(in_features=256, out_features=256, bias=True)
      (layer_norm): LayerNorm((256,), eps=1e-05, elementwise_affine=True)
    )
    (1): Linear(in_features=256, out_features=1, bias=True)
  )
  (trans_mlp): Sequential(
    (0): ResidualLayer(
      (lin1): Linear(in_features=256, out_features=256, bias=True)
      (lin2): Linear(in_features=256, out_features=256, bias=True)
      (layer_norm): LayerNorm((256,), eps=1e-05, elementwise_affine=True)
    )
    (1): Linear(in_features=256, out_features=128, bias=True)
  )
  (terminal_mlp): Sequential(
    (0): ResidualLayer(
      (lin1): Linear(in_features=256, out_features=256, bias=True)
      (lin2): Linear(in_features=256, out_features=256, bias=True)
      (layer_norm): LayerNorm((256,), eps=1e-05, elementwise_affine=True)
    )
    (1): Linear(in_features=256, out_features=10001, bias=True)
  )
  (ff): FfEmission(
    (emb): Embedding(10003, 256, padding_idx=1)
    (cnn): Conv1d(256, 256, kernel_size=(2,), stride=(1,))
    (dropout): Dropout(p=0.3, inplace=False)
    (mlp): Sequential(
      (0): Linear(in_features=256, out_features=256, bias=True)
      (1): ReLU()
      (2): Dropout(p=0.3, inplace=False)
    )
    (proj): Linear(in_features=256, out_features=10001, bias=False)
  )
)
Num params, trainable: 8416146, 8416146
Valid eval: log_prob = -454518.12 | xent(word) = 6.16 | ppl = 474.43 | elbo = -6.16 | total_time = 20.20s
Train batch 4999: log_prob = -2802572.50 | xent(word) = 6.35 | ppl = 571.91 | elbo = -6.35
Valid eval: log_prob = -443936.94 | xent(word) = 6.02 | ppl = 411.03 | elbo = -6.02 | total_time = 20.08s
Train batch 9999: log_prob = -5531197.50 | xent(word) = 6.25 | ppl = 520.03 | elbo = -6.25
…
