…
onfig configs/chmm-d256-k16384-wps512-spw128-oldres.yaml --bsz 4 --num-epochs 100 --patience 8 --devid 0 --save chmm_d256_k16384_wps512_spw128_oldres
{'--bptt': '35',
 '--bsz': '4',
 '--clip': '5',
 '--decay': '4',
 '--devid': '0',
 '--eval-bsz': '1',
 '--lr': '1e-3',
 '--model-config': 'configs/chmm-d256-k16384-wps512-spw128-oldres.yaml',
 '--num-checks': '4',
 '--num-epochs': '100',
 '--overfit': False,
 '--patience': '8',
 '--report-every': '5000',
 '--save': 'chmm_d256_k16384_wps512_spw128_oldres',
 '--seed': '1111'}
ChmmLm(
  (start_mlp): Sequential(
    (0): ResidualLayerOld(
      (lin1): Linear(in_features=256, out_features=256, bias=True)
      (lin2): Linear(in_features=256, out_features=256, bias=True)
      (layer_norm): LayerNorm((256,), eps=1e-05, elementwise_affine=True)
    )
    (1): Linear(in_features=256, out_features=1, bias=True)
  )
  (state_emb): Embedding(16384, 256)
  (trans_mlp): Sequential(
    (0): ResidualLayerOld(
      (lin1): Linear(in_features=256, out_features=256, bias=True)
      (lin2): Linear(in_features=256, out_features=256, bias=True)
      (layer_norm): LayerNorm((256,), eps=1e-05, elementwise_affine=True)
    )
    (1): Linear(in_features=256, out_features=16384, bias=True)
  )
  (preterminal_emb): Embedding(16384, 256)
  (terminal_mlp): Sequential(
    (0): ResidualLayerOld(
      (lin1): Linear(in_features=256, out_features=256, bias=True)
      (lin2): Linear(in_features=256, out_features=256, bias=True)
      (layer_norm): LayerNorm((256,), eps=1e-05, elementwise_affine=True)
    )
    (1): Linear(in_features=256, out_features=10002, bias=True)
  )
)
Num params, trainable: 19,760,659, 19,760,659
Valid eval: log_prob = -403912.66 | xent(word) = 5.48 | ppl = 238.90 | elbo = -6.85 | total_time = 61.28s
Train batch 4999: log_prob = -2501231.00 | xent(word) = 5.67 | ppl = 289.79 | elbo = -7.32
Valid eval: log_prob = -391165.03 | xent(word) = 5.30 | ppl = 200.98 | elbo = -6.50 | total_time = 61.21s
…
