main.py --devid 0 --model-config configs/hmm-d512-k512-oldres.yaml --num-epochs 100 --bsz 4 --patience 8 --save hmm_b4_d512_k512_oldres
{'--bptt': '35',
 '--bsz': '4',
 '--clip': '5',
 '--decay': '4',
 '--devid': '0',
 '--eval-bsz': '1',
 '--lr': '1e-3',
 '--model-config': 'configs/hmm-d512-k512-oldres.yaml',
 '--num-checks': '4',
 '--num-epochs': '100',
 '--overfit': False,
 '--patience': '8',
 '--report-every': '5000',
 '--save': 'hmm_b4_d512_k512_oldres',
 '--seed': '1111'}
HmmLm(
  (start_mlp): Sequential(
    (0): ResidualLayerOld(
      (lin1): Linear(in_features=512, out_features=512, bias=True)
      (lin2): Linear(in_features=512, out_features=512, bias=True)
      (layer_norm): LayerNorm((512,), eps=1e-05, elementwise_affine=True)
    )
    (1): Linear(in_features=512, out_features=1, bias=True)
  )
  (trans_mlp): Sequential(
    (0): ResidualLayerOld(
      (lin1): Linear(in_features=512, out_features=512, bias=True)
      (lin2): Linear(in_features=512, out_features=512, bias=True)
      (layer_norm): LayerNorm((512,), eps=1e-05, elementwise_affine=True)
    )
    (1): Linear(in_features=512, out_features=512, bias=True)
  )
  (terminal_mlp): Sequential(
    (0): ResidualLayerOld(
      (lin1): Linear(in_features=512, out_features=512, bias=True)
      (lin2): Linear(in_features=512, out_features=512, bias=True)
      (layer_norm): LayerNorm((512,), eps=1e-05, elementwise_affine=True)
    )
    (1): Linear(in_features=512, out_features=10001, bias=True)
  )
)
Num params, trainable: 7759122, 7759122
Valid eval: log_prob = -416809.56 | xent(word) = 5.65 | ppl = 284.54 | elbo = -6.46 | total_time = 27.77s
Train batch 4999: log_prob = -2572719.75 | xent(word) = 5.82 | ppl = 337.76 | elbo = -6.90
Valid eval: log_prob = -405002.00 | xent(word) = 5.49 | ppl = 242.45 | elbo = -6.16 | total_time = 27.54s
Train batch 9999: log_prob = -4977654.50 | xent(word) = 5.63 | ppl = 278.62 | elbo = -6.48
…
