main.py --devid 0 --model-config configs/hmm-d512-k128-oldres.yaml --num-epochs 100 --bsz 4 --patience 8 --save hmm_b4_d512_k128_oldres
{'--bptt': '35',
 '--bsz': '4',
 '--clip': '5',
 '--decay': '4',
 '--devid': '0',
 '--eval-bsz': '1',
 '--lr': '1e-3',
 '--model-config': 'configs/hmm-d512-k128-oldres.yaml',
 '--num-checks': '4',
 '--num-epochs': '100',
 '--overfit': False,
 '--patience': '8',
 '--report-every': '5000',
 '--save': 'hmm_b4_d512_k128_oldres',
 '--seed': '1111'}
HmmLm(
  (start_mlp): Sequential(
    (0): ResidualLayerOld(
      (lin1): Linear(in_features=512, out_features=512, bias=True)
      (lin2): Linear(in_features=512, out_features=512, bias=True)
      (layer_norm): LayerNorm((512,), eps=1e-05, elementwise_affine=True)
    )
    (1): Linear(in_features=512, out_features=1, bias=True)
  )
  (trans_mlp): Sequential(
    (0): ResidualLayerOld(
      (lin1): Linear(in_features=512, out_features=512, bias=True)
      (lin2): Linear(in_features=512, out_features=512, bias=True)
      (layer_norm): LayerNorm((512,), eps=1e-05, elementwise_affine=True)
    )
    (1): Linear(in_features=512, out_features=128, bias=True)
  )
  (terminal_mlp): Sequential(
    (0): ResidualLayerOld(
      (lin1): Linear(in_features=512, out_features=512, bias=True)
      (lin2): Linear(in_features=512, out_features=512, bias=True)
      (layer_norm): LayerNorm((512,), eps=1e-05, elementwise_affine=True)
    )
    (1): Linear(in_features=512, out_features=10001, bias=True)
  )
)
Num params, trainable: 6972306, 6972306
Valid eval: log_prob = -418851.88 | xent(word) = 5.68 | ppl = 292.53 | elbo = -6.31 | total_time = 3.42s
Train batch 4999: log_prob = -2577295.25 | xent(word) = 5.84 | ppl = 345.21 | elbo = -6.71
Valid eval: log_prob = -411131.09 | xent(word) = 5.57 | ppl = 263.46 | elbo = -6.08 | total_time = 3.67s
Train batch 9999: log_prob = -5030857.50 | xent(word) = 5.69 | ppl = 296.86 | elbo = -6.37
…
