main.py --devid 0 --model-config configs/hmm-d512-k1024-oldres.yaml --num-epochs 100 --bsz 4 --patience 8 --save hmm_b4_d512_k1024_oldres
{'--bptt': '35',
 '--bsz': '4',
 '--clip': '5',
 '--decay': '4',
 '--devid': '0',
 '--eval-bsz': '1',
 '--lr': '1e-3',
 '--model-config': 'configs/hmm-d512-k1024-oldres.yaml',
 '--num-checks': '4',
 '--num-epochs': '100',
 '--overfit': False,
 '--patience': '8',
 '--report-every': '5000',
 '--save': 'hmm_b4_d512_k1024_oldres',
 '--seed': '1111'}
HmmLm(
  (start_mlp): Sequential(
    (0): ResidualLayerOld(
      (lin1): Linear(in_features=512, out_features=512, bias=True)
      (lin2): Linear(in_features=512, out_features=512, bias=True)
      (layer_norm): LayerNorm((512,), eps=1e-05, elementwise_affine=True)
    )
    (1): Linear(in_features=512, out_features=1, bias=True)
  )
  (trans_mlp): Sequential(
    (0): ResidualLayerOld(
      (lin1): Linear(in_features=512, out_features=512, bias=True)
      (lin2): Linear(in_features=512, out_features=512, bias=True)
      (layer_norm): LayerNorm((512,), eps=1e-05, elementwise_affine=True)
    )
    (1): Linear(in_features=512, out_features=1024, bias=True)
  )
  (terminal_mlp): Sequential(
    (0): ResidualLayerOld(
      (lin1): Linear(in_features=512, out_features=512, bias=True)
      (lin2): Linear(in_features=512, out_features=512, bias=True)
      (layer_norm): LayerNorm((512,), eps=1e-05, elementwise_affine=True)
    )
    (1): Linear(in_features=512, out_features=10001, bias=True)
  )
)
Num params, trainable: 8808210, 8808210
Valid eval: log_prob = -416327.25 | xent(word) = 5.64 | ppl = 282.69 | elbo = -6.66 | total_time = 69.72s
Train batch 4999: log_prob = -2574595.75 | xent(word) = 5.84 | ppl = 343.12 | elbo = -7.15
Valid eval: log_prob = -403005.59 | xent(word) = 5.46 | ppl = 235.98 | elbo = -6.25 | total_time = 68.24s
Train batch 9999: log_prob = -4982027.50 | xent(word) = 5.63 | ppl = 279.02 | elbo = -6.67
…
