main.py --devid 0 --model-config configs/hmm-d512-k256-oldres.yaml --num-epochs 100 --bsz 4 --patience 8 --save hmm_b4_d512_k256_oldres
{'--bptt': '35',
 '--bsz': '4',
 '--clip': '5',
 '--decay': '4',
 '--devid': '0',
 '--eval-bsz': '1',
 '--lr': '1e-3',
 '--model-config': 'configs/hmm-d512-k256-oldres.yaml',
 '--num-checks': '4',
 '--num-epochs': '100',
 '--overfit': False,
 '--patience': '8',
 '--report-every': '5000',
 '--save': 'hmm_b4_d512_k256_oldres',
 '--seed': '1111'}
HmmLm(
  (start_mlp): Sequential(
    (0): ResidualLayerOld(
      (lin1): Linear(in_features=512, out_features=512, bias=True)
      (lin2): Linear(in_features=512, out_features=512, bias=True)
      (layer_norm): LayerNorm((512,), eps=1e-05, elementwise_affine=True)
    )
    (1): Linear(in_features=512, out_features=1, bias=True)
  )
  (trans_mlp): Sequential(
    (0): ResidualLayerOld(
      (lin1): Linear(in_features=512, out_features=512, bias=True)
      (lin2): Linear(in_features=512, out_features=512, bias=True)
      (layer_norm): LayerNorm((512,), eps=1e-05, elementwise_affine=True)
    )
    (1): Linear(in_features=512, out_features=256, bias=True)
  )
  (terminal_mlp): Sequential(
    (0): ResidualLayerOld(
      (lin1): Linear(in_features=512, out_features=512, bias=True)
      (lin2): Linear(in_features=512, out_features=512, bias=True)
      (layer_norm): LayerNorm((512,), eps=1e-05, elementwise_affine=True)
    )
    (1): Linear(in_features=512, out_features=10001, bias=True)
  )
)
Num params, trainable: 7234578, 7234578
Valid eval: log_prob = -414777.94 | xent(word) = 5.62 | ppl = 276.81 | elbo = -6.30 | total_time = 6.03s
Train batch 4999: log_prob = -2567778.00 | xent(word) = 5.80 | ppl = 330.96 | elbo = -6.76
Valid eval: log_prob = -405113.00 | xent(word) = 5.49 | ppl = 242.82 | elbo = -6.06 | total_time = 6.52s
Train batch 9999: log_prob = -4979178.50 | xent(word) = 5.63 | ppl = 278.53 | elbo = -6.38
…
